…
y Drive/School Documents/2024-2025/Fall 2024/850 - Machine Learning/NHanna_AER850_Project_2/Project2CodeSteps1Through4.py', wdir='G:/My Drive/School Documents/2024-2025/Fall 2024/850 - Machine Learning/NHanna_AER850_Project_2')
Found 1942 images belonging to 3 classes.
Found 431 images belonging to 3 classes.
Model: "sequential_2"
┌─────────────────────────────────┬────────────────────────┬───────────────┐
│ Layer (type)                    │ Output Shape           │       Param # │
├─────────────────────────────────┼────────────────────────┼───────────────┤
│ conv2d_6 (Conv2D)               │ (None, 254, 254, 64)   │         1,792 │
├─────────────────────────────────┼────────────────────────┼───────────────┤
│ max_pooling2d_4 (MaxPooling2D)  │ (None, 127, 127, 64)   │             0 │
├─────────────────────────────────┼────────────────────────┼───────────────┤
│ conv2d_7 (Conv2D)               │ (None, 125, 125, 64)   │        36,928 │
├─────────────────────────────────┼────────────────────────┼───────────────┤
│ max_pooling2d_5 (MaxPooling2D)  │ (None, 62, 62, 64)     │             0 │
├─────────────────────────────────┼────────────────────────┼───────────────┤
│ conv2d_8 (Conv2D)               │ (None, 60, 60, 128)    │        73,856 │
├─────────────────────────────────┼────────────────────────┼───────────────┤
│ flatten_2 (Flatten)             │ (None, 460800)         │             0 │
├─────────────────────────────────┼────────────────────────┼───────────────┤
│ dense_4 (Dense)                 │ (None, 128)            │    58,982,528 │
├─────────────────────────────────┼────────────────────────┼───────────────┤
│ dropout_1 (Dropout)             │ (None, 128)            │             0 │
├─────────────────────────────────┼────────────────────────┼───────────────┤
│ dense_5 (Dense)                 │ (None, 3)              │           387 │
└─────────────────────────────────┴────────────────────────┴───────────────┘
 Total params: 59,095,491 (225.43 MB)
 Trainable params: 59,095,491 (225.43 MB)
 Non-trainable params: 0 (0.00 B)
Epoch 1/32
31/31 ━━━━━━━━━━━━━━━━━━━━ 65s 2s/step - accuracy: 0.3862 - loss: 4.4581 - val_accuracy: 0.6682 - val_loss: 0.9040
Epoch 2/32
31/31 ━━━━━━━━━━━━━━━━━━━━ 62s 2s/step - accuracy: 0.5954 - loss: 0.8890 - val_accuracy: 0.6845 - val_loss: 0.7136
…
