…
y Drive/School Documents/2024-2025/Fall 2024/850 - Machine Learning/NHanna_AER850_Project_2/Project2CodeSteps1Through4.py', wdir='G:/My Drive/School Documents/2024-2025/Fall 2024/850 - Machine Learning/NHanna_AER850_Project_2')
Found 1942 images belonging to 3 classes.
Found 431 images belonging to 3 classes.
Model: "sequential_3"
┌─────────────────────────────────┬────────────────────────┬───────────────┐
│ Layer (type)                    │ Output Shape           │       Param # │
├─────────────────────────────────┼────────────────────────┼───────────────┤
│ conv2d_9 (Conv2D)               │ (None, 254, 254, 64)   │         1,792 │
├─────────────────────────────────┼────────────────────────┼───────────────┤
│ max_pooling2d_6 (MaxPooling2D)  │ (None, 127, 127, 64)   │             0 │
├─────────────────────────────────┼────────────────────────┼───────────────┤
│ conv2d_10 (Conv2D)              │ (None, 125, 125, 64)   │        36,928 │
├─────────────────────────────────┼────────────────────────┼───────────────┤
│ max_pooling2d_7 (MaxPooling2D)  │ (None, 62, 62, 64)     │             0 │
├─────────────────────────────────┼────────────────────────┼───────────────┤
│ conv2d_11 (Conv2D)              │ (None, 60, 60, 128)    │        73,856 │
├─────────────────────────────────┼────────────────────────┼───────────────┤
│ flatten_3 (Flatten)             │ (None, 460800)         │             0 │
├─────────────────────────────────┼────────────────────────┼───────────────┤
│ dense_6 (Dense)                 │ (None, 256)            │   117,965,056 │
├─────────────────────────────────┼────────────────────────┼───────────────┤
│ dropout_3 (Dropout)             │ (None, 256)            │             0 │
├─────────────────────────────────┼────────────────────────┼───────────────┤
│ dense_7 (Dense)                 │ (None, 3)              │           771 │
└─────────────────────────────────┴────────────────────────┴───────────────┘
 Total params: 118,078,403 (450.43 MB)
 Trainable params: 118,078,403 (450.43 MB)
 Non-trainable params: 0 (0.00 B)
C:\Users\Engineering\AppData\Roaming\Python\Python312\site-packages\keras\src\layers\convolutional\base_conv.py:107: UserWarning: Do not pass an `input_shape`/`input_dim` argument to a layer. When using Sequential models, prefer using an `Input(shape)` object as the first layer in the model instead.
…
